final_model/simple_trained.pth (torch, 8020 bytes, 8 tensors)

conv.0.weight f4 [16, 3, 3, 3]
0.18058021 0.12765181 -0.01993061 0.10569558 0.11376607 0.18738753 -0.15516476 -0.044297285
0.21137564 0.1957367 0.0765277 -0.14486451 -0.14451857 0.06156637 0.1128996 -0.095769465
-0.08841391 -0.08702442 0.076170996 0.2143874 0.17624168 -0.06380765 -0.09550832 0.028096061
-0.05808816 0.15357183 0.20277429 -0.21967158 0.14088528 -0.1791136 0.20935294 -0.223054
0.15757297 0.21062194 0.074823625 0.22159119 0.07830461 -0.15203811 0.13369583 0.11950441
-0.06813351 -0.22129743 0.08773356 0.15730838 -0.110200725 0.13985442 0.104598574 0.12601747
0.09826439 -0.10712355 0.22748084 0.13514838 0.16229823 0.08797878 -0.12724656 -0.10810703
-0.19423787 -0.08333576 0.14223754 0.083480634 0.088351995 -0.119525984 -0.15779437 -0.021407941
-0.11694405 -0.099547155 -0.07937991 -0.037838224 0.029308617 0.05349516 0.03462352 0.047546335
0.09319944 0.10888944 -0.16071926 0.0674284 0.18952577 0.14265302 0.029823715 0.13786416
0.19272684 -0.1678481 -0.19659437 -0.20399258 -0.043295607 -0.033798072 0.16043228 0.060674466
-0.17435199 0.12533253 -0.028408356 -0.18127501 0.12144152 0.182777 -0.20651202 0.07407787
-0.17823459 0.05031213 -0.078646675 0.16387005 -0.13201159 0.16996126 -0.12612137 -0.052820146
-0.04842465 -0.08807675 -0.16204241 -0.14132263 -0.07253517 0.07145039 -0.13022676 0.15132007
0.15638548 0.1104286 -0.087569274 -0.04053952 0.011377525 -0.122735836 -0.10442465 0.13053693
-0.0045512593 -0.12427982 0.10125316 -0.09707915 -0.029477077 -0.18155567 -0.1427962 -0.032416545
-0.06916656 -0.17896862 -0.11181903 -0.18021111 0.13907437 0.064883836 -0.0949163 -0.08942246
-0.06776369 0.15257435 0.14920935 -0.019459082 -0.17495698 0.09227713 -0.024518939 -0.05747539
-0.16289824 0.11465581 0.007627752 0.087316655 -0.13499193 -0.11231938 0.06735237 -0.11962453
-0.11238345 -0.1600606 -0.016256107 0.11408524 -0.02566071 -0.15236561 0.1940137 0.1303168
-0.1606047 0.19054994 -0.045087725 -0.16218498 0.110714205 -0.054389652 -0.18370867 -0.15752088
-0.13919348 -0.18605056 0.17025937 0.09550254 -0.22029741 -0.07185232 0.11611033 -0.15695211
-0.15667205 0.16721071 -0.21567345 0.20695515 -0.06094768 0.18268012 0.14849237 0.17026515
0.14708957 0.1773008 0.07944805 0.11935136 0.083488815 0.10750846 -0.0011876093 -0.010789192
0.039344426 0.01721001 0.05547644 0.0033214774 0.00097116077 -0.002408656 -0.14234142 0.122250564
-0.10853119 0.008913856 0.08767782 -0.14055243 -0.13009283 0.04006987 0.027719017 -0.01787821
0.085054226 0.1231707 -0.10807318 0.11717655 -0.01736026 0.0700855 0.11586423 0.09256651
0.03477135 0.08751835 0.0060182353 -0.01703229 0.10908592 -0.08195297 0.17939535 -0.110776536
-0.0432414 -0.19732183 0.08430076 0.1717764 -0.029859884 -0.112680234 -0.074971445 -0.036705926
-0.11912288 -0.14880253 0.011737742 0.13352735 -0.11625142 0.054831766 -0.08790384 -0.1217932
0.06703151 -0.17151575 0.18242046 0.12038727 0.20956042 -0.08456694 0.17689429 -0.20871487
0.21003091 0.12097192 0.20414382 0.18366972 0.014373349 0.21519253 0.092506506 -0.10379789
00000000: 05ea 383e 28b7 023e 8545 a3bc ed76 d83d
00000010: 2ffe e83d 84e2 3f3e 83e3 1ebe 1271 35bd
00000020: db72 583e 346f 483e 8eba 9c3d 5d57 14be
00000030: adfc 13be 052d 7c3d e837 e73d c822 c4bd
00000040: 5a12 b5bd dc39 b2bd 8aff 9b3d 5f88 5b3e
00000050: b378 343e 96ad 82bd de99 c3bd b629 e63c
00000060: daed 6dbd ef41 1d3e 10a4 4f3e 96f1 60be
00000070: 3b44 103e 8e69 37be 9e60 563e 4568 64be
00000080: cf5a 213e 47ad 573e 213d 993d cde8 623e
00000090: 2b5e a03d e1af 1bbe 8fe7 083e babe f43d
000000a0: 9589 8bbd cb9b 62be a7ad b33d 7315 213e
000000b0: ebb0 e1bd ff35 0f3e c737 d63d b90a 013e
000000c0: d73e c93d 9763 dbbd bdf0 683e 5664 0a3e
000000d0: 8231 263e 382e b43d ec4c 02be 3867 ddbd
000000e0: 4be6 46be f0ab aabd b8a6 113e e5f7 aa3d
000000f0: e4f1 b43d 0aca f4bd d994 21be b55f afbc
00000100: 5d80 efbd 61df cbbd ef91 a2bd 41fc 1abd
00000110: a018 f03c be1d 5b3d 64d1 0d3d f2bf 423d
00000120: 59df be3d 6d01 df3d 9793 24be e717 8a3d
00000130: 0b13 423e a213 123e dd50 f43c 432c 0d3e
00000140: 2f5a 453e 5fe0 2bbe 0950 49be 6ee3 50be
00000150: bc56 31bd d96f 0abd 5c48 243e ca85 783d
00000160: 5489 32be 2c57 003e a4b8 e8bc 28a0 39be
00000170: 55b6 f83d e529 3b3e e377 53be 23b6 973d
00000180: 2183 36be 1814 4e3d 8211 a1bd 8dcd 273e
00000190: 0c2e 07be 530a 2e3e f625 01be f059 58bd
000001a0: ed58 46bd 9561 b4bd 72ee 25be e1b6 10be
000001b0: 528d 94bd 9554 923d 2a5a 05be a6f3 1a3e
000001c0: 8423 203e 6428 e23d 8557 b3bd c50c 26bd
000001d0: cc68 3a3c ed5c fbbd 97dc d5bd 79ab 053e
000001e0: bb22 95bb 6b86 febd d15d cf3d 6fd1 c6bd
000001f0: e979 f1bc bbe9 39be 2b39 12be 36c7 04bd
00000200: 33a7 8dbd 8d43 37be 6001 e5bd 4389 38be
00000210: 8369 0e3e d1e1 843d 7a63 c2bd 1f23 b7bd
00000220: b1c7 8abd 733c 1c3e 56ca 183e a768 9fbc
00000230: ec27 33be cbfb bc3d f1db c8bc 516b 6bbd
00000240: ccce 26be aad0 ea3d 39f2 f93b 13d3 b23d
00000250: 533b 0abe b407 e6bd 0af0 893d b5fd f4bd
00000260: 4b29 e6bd ede6 23be 872b 85bc 86a5 e93d
00000270: 6936 d2bc bb05 1cbe 87ab 463e c471 053e
00000280: 8f75 24be 861f 433e e8ad 38bd d213 26be
00000290: 21be e23d afc7 5ebd 201e 3cbe 274d 21be
000002a0: bc88 0ebe 0a84 3ebe 7958 2e3e d696 c33d
000002b0: a595 61be 4f27 93bd 41cb ed3d 0eb8 20be
000002c0: a36e 20be 4939 2b3e 80d9 5cbe 0dec 533e
000002d0: 46a4 79bd 7f10 3b3e 620e 183e fd59 2e3e
000002e0: a69e 163e 578e 353e a9b5 a23d 7c6e f43d
000002f0: 2ffc aa3d 652d dc3d 8ea9 9bba 27c5 30bc
00000300: 9f27 213d 02fc 8c3c 433b 633d 25ad 593b
00000310: 7f95 7e3a 8bda 1dbb f3c1 11be 815e fa3d
00000320: 9a45 debd 6c0b 123c 6e90 b33d faec 0fbe
00000330: 0e37 05be 4e20 243d fe12 e33c 5375 92bc
00000340: e930 ae3d ec40 fc3d 7955 ddbd 42fa ef3d
00000350: 1b37 8ebc fd88 8f3d 3a4a ed3d 8393 bd3d
00000360: 676c 0e3d d23c b33d 9e34 c53b 4d87 8bbc
00000370: 7068 df3d f5d6 a7bd 6ab3 373e cfde e2bd
00000380: e51d 31bd bc0e 4abe e0a5 ac3d 27e6 2f3e
00000390: b79c f4bc e5c4 e6bd a18a 99bd f458 16bd
000003a0: b2f6 f3bd b15f 18be a94f 403c 65bb 083e
000003b0: 3915 eebd 4697 603d ee06 b4bd b76e f9bd
000003c0: d147 893d d3a1 2fbe 6ecc 3a3e 9a8d f63d
000003d0: 0297 563e 6f31 adbd c723 353e 5ab9 55be
000003e0: 5812 573e 20c0 f73d 140b 513e ea13 3c3e
000003f0: 327e 6b3c 6e5b 5c3e 0d74 bd3d fd93 d4bd

conv.0.bias f4 [16]
0.1930266 -0.11464144 0.14258566 0.09470907 0.051092938 0.030851847 0.067881994 -0.04016782
0.14350078 -0.105449125 0.014551835 0.1710443 0.1139335 0.18394427 0.06531801 -0.09871127
00000000: c4a8 453e 22c9 eabd fa01 123e d4f6 c13d
00000010: d446 513d 03bd fc3c b705 8b3d 0387 24bd
00000020: def1 123e b6f5 d7bd d26a 6e3c 3d26 2f3e
00000030: f855 e93d e35b 3c3e 73c5 853d 2229 cabd

fc.0.weight f4 [16, 32]
-0.09772661 0.050760403 -0.06308232 -0.08826327 -0.16381265 -0.13382924 0.08324985 -0.04848346
-0.071132205 -0.002458781 0.09285723 0.0010509938 -0.07844498 -0.13407034 0.15876772 0.09940921
-0.11201551 -0.13801622 -0.028807744 -0.16437213 -0.09279086 -0.16393584 0.032506138 0.10751994
-0.0809917 -0.14262265 0.006013781 0.0119102 0.14483191 0.14557122 -0.097776346 0.06883086
-0.15945725 0.062356994 0.009548158 0.07979148 0.076610915 -0.10413794 0.04578726 -0.12131185
-0.12689276 -0.03404139 0.047508217 -0.009265115 -0.14821087 0.09005436 0.012149846 0.03816331
0.02348298 0.058018904 0.08571576 0.121598706 -0.018316891 -0.14725947 0.1759552 0.15668188
0.11351551 -0.065038666 0.050416093 -0.058011282 -0.15364386 0.115709625 0.11053123 -0.007173472
0.13414702 0.07304352 -0.1716571 0.004583389 0.055290084 0.17093854 -0.14171265 -0.06388295
-0.041714273 -0.107101224 -0.14482562 0.091116674 0.07217322 -0.07030484 0.054340914 0.08212971
-0.057511043 0.11076327 -0.17769927 -0.06822843 0.00035664623 0.024832165 -0.09350373 -0.17906281
-0.11807162 -0.07426136 0.1461856 0.14313813 0.10288744 -0.12516436 0.083226666 0.051061
-0.11483812 0.06932965 -0.145183 -0.05236493 0.13486393 -0.11984294 -0.004886478 -0.14476037
-0.12581456 -0.0135733485 -0.02537562 0.13741209 0.11500941 0.14248751 -0.14986433 -0.103400506
-0.022672713 0.14199366 -0.03864722 0.00037053227 -0.06101437 0.09668605 0.12907346 0.03539619
-0.12252453 -0.0509506 0.04134816 -0.088230126 -0.09531971 -0.14371441 -0.11583583 -0.022094712
0.07104522 -0.07588942 -0.12358041 -0.15998837 -0.10906993 -0.06374011 0.15804966 0.16793476
0.05886048 -0.012060955 0.10747783 0.15565588 -0.16489841 0.08900903 0.13677718 -0.16295858
0.04857081 -0.118098274 -0.13194825 0.05247417 -0.08325033 -0.014330491 0.026742026 0.044237778
-0.020591766 -0.043903023 0.1439565 0.1406527 0.08696468 -0.097600274 -0.062198333 0.09121673
-0.1189372 -0.03989558 0.0122626275 0.16064988 -0.13834715 -0.015016928 -0.03997399 -0.15880172
0.09325187 0.16006653 -0.04268357 0.130931 -0.16267475 0.06843288 -0.033694252 -0.09552328
-0.07279793 0.0025483072 0.053638756 0.018765971 0.041858077 0.109058306 -0.13602252 -0.02550894
0.062605545 0.15327679 0.10307552 -0.17659278 0.048316702 -0.16179465 0.051692396 -0.09797749
-0.007277563 0.11508687 0.16252531 -0.0026232004 0.13488124 0.050535783 0.156022 -0.10621867
0.018373206 0.008437574 0.023272127 -0.09124932 0.014435366 -0.0969937 -0.10126375 -0.05584036
0.14984299 0.012643963 -0.13064003 0.0409268 0.004336074 -0.07651817 -0.06242028 0.012171626
0.035370395 -0.057021506 -0.14243984 -0.08321672 -0.0031159967 -0.17410538 0.09716721 0.09540965
0.07583303 0.062678955 0.07211286 -0.013466951 0.10158993 0.13347726 0.13979767 -0.08513907
0.12580821 0.21177001 0.16204737 0.2418967 0.093484625 0.09375534 -0.09021444 0.1241818
0.0370492 0.18809095 -0.075827315 -0.05380661 0.08926239 0.08606465 0.1599157 -0.03886582
-0.04811934 0.14103772 0.059863813 0.18222813 -0.07427263 0.009841183 0.1347883 0.22699463
00000000: e424 c8bd 24ea 4f3d 4e31 81bd 60c3 b4bd
00000010: 81be 27be 880a 09be e67e aa3d 9896 46bd
00000020: c3ad 91bd 8023 21bb ee2b be3d 80c1 893a
00000030: c3a7 a0bd bc49 09be 0194 223e 0e97 cb3d
00000040: 6368 e5bd 2054 0dbe 38fe ebbc 2b51 28be
00000050: 2209 bebd ccde 27be 2825 053d 6a33 dc3d
00000060: fade a5bd ac0b 12be 400f c53b 0023 433c
00000070: d14e 143e 9f10 153e f73e c8bd 32f7 8c3d
00000080: c348 23be 0c6a 7f3d e16f 1c3c b769 a33d
00000090: 2fe6 9c3d 4646 d5bd 6c8b 3b3d 5972 f8bd
000000a0: 2df0 01be fc6e 0bbd fa97 423d b5cc 17bc
000000b0: 97c4 17be 6c6e b83d 2610 473c 2251 1c3d
000000c0: 615f c03c 3ba5 6d3d bf8b af3d be08 f93d
000000d0: 4e0d 96bc 30cb 16be 9a2d 343e 3771 203e
000000e0: d27a e83d fe32 85bd 1b81 4e3d 3d9d 6dbd
000000f0: d154 1dbe 2bf9 ec3d 335e e23d 720f ebbb
00000100: d65d 093e d797 953d e1c6 2fbe 4130 963b
00000110: db77 623d 830a 2f3e 1f1d 11be 10d5 82bd
00000120: 96dc 2abd e357 dbbd 2b4d 14be 619b ba3d
00000130: 8ecf 933d fcfb 8fbd 9494 5e3d 9f33 a83d
00000140: b390 6bbd dad7 e23d ccf6 35be 59bb 8bbd
00000150: 3ffc ba39 d36c cb3c e27e bfbd 3e5c 37be
00000160: 89cf f1bd 5716 98bd aeb1 153e cd92 123e
00000170: a6b6 d23d 162b 00be be72 aa3d 5725 513d
00000180: 4030 ebbd b4fc 8d3d daaa 14be 9c7c 56bd
00000190: c519 0a3e 3770 f5bd c01e a0bb 103c 14be
000001a0: 88d5 00be c062 5ebc 88e0 cfbc c1b5 0c3e
000001b0: 0e8a eb3d 3fe8 113e 0976 19be a5c3 d3bd
000001c0: 20bc b9bc c966 113e 8c4c 1ebd 0044 c239
000001d0: 34ea 79bd 5603 c63d d52b 043e 98fb 103d
000001e0: 24ee fabd 94b1 50bd b05c 293d ffb1 b4bd
000001f0: fb36 c3bd df29 13be 563b edbd f8ff b4bc
00000200: 2880 913d ea6b 9bbd ba17 fdbd fed3 23be
00000210: 0e60 dfbd 2d8a 82bd c5d7 213e 17f7 2b3e
00000220: b017 713d 509b 45bc 561d dc3d 4164 1f3e
00000230: 21db 28be 5e4a b63d 510f 0c3e 9dde 26be
00000240: 30f2 463d 82dd f1bd 711d 07be 28ef 563d
00000250: 267f aabd 70ca 6abc 1812 db3c ac32 353d
00000260: 10b0 a8bc a8d3 33bd 5569 133e 4307 103e
00000270: 8a1a b23d a7e2 c7bd aec3 7ebd d6cf ba3d
00000280: 5995 f3bd 8c69 23bd 30e9 483c 6781 243e
00000290: e0aa 0dbe 9009 76bc c4bb 23bd eb9c 22be
000002a0: d6fa be3d 7be8 233e f8d4 2ebd c712 063e
000002b0: 3694 26be 8a26 8c3d fc02 0abd b6a1 c3bd
000002c0: 1517 95bd 8001 273b 50b4 5b3d 18bb 993c
000002d0: 6073 2b3d f659 df3d 7d49 0bbe 20f8 d0bc
000002e0: 5637 803d 97f4 1c3e 4219 d33d bdd4 34be
000002f0: bce7 453d 7fad 25be 68bb 533d 6ca8 c8bd
00000300: a078 eebb aab2 eb3d 096d 263e 00ea 2bbb
00000310: 4f1e 0a3e 9cfe 4e3d 3bc4 1f3e 2d89 d9bd
00000320: 6883 963c c03d 0a3c 30a5 be3c ece0 babd
00000330: 5082 6c3c a2a4 c6bd 5e63 cfbd dcb8 64bd
00000340: 7170 193e a028 4f3c 80c6 05be dca2 273d
00000350: a015 8e3b 8fb5 9cbd 68ac 7fbd 806b 473c
00000360: 8ce0 103d 628f 69bd c0db 11be 876d aabd
00000370: c035 4cbb ae48 32be 9aff c63d 2266 c33d
00000380: 594e 9b3d d35d 803d e8af 933d 7da4 5cbc
00000390: 620e d03d 43ae 083e 1f27 0f3e 655d aebd
000003a0: ded3 003e 3dda 583e bfef 253e c5b3 773e
000003b0: de74 bf3d cd02 c03d 59c2 b8bd 0753 fe3d
000003c0: e7c0 173d ea9a 403e 5a4b 9bbd 5264 5cbd
000003d0: 33cf b63d aa42 b03d f1c0 233e c431 1fbd
000003e0: c918 45bd 316c 103e c233 753d 039a 3a3e
000003f0: 401c 98bd ea3c 213c f205 0a3e 4871 683e

fc.0.bias f4 [16]
-0.021092102 0.06553707 0.06738436 0.11847408 -0.15063922 -0.0020662844 0.024011612 0.15188336
0.08754829 0.07434028 0.00112487 0.15129411 -0.11177092 0.027266786 0.08006655 -0.089511305
00000000: 58c9 acbc 4d38 863d d000 8a3d 8aa2 f23d
00000010: 2b41 1abe 806a 07bb 00b4 c43c 5087 1b3e
00000020: 854c b33d b73f 983d 6070 933a d8ec 1a3e
00000030: 27e8 e4bd 985e df3c eef9 a33d b451 b7bd

fc.2.weight f4 [8, 16]
-0.10776502 -0.014083748 -0.042900942 -0.20419219 0.15741035 -0.042700082 -0.24560255 0.23305109
-0.22958064 0.24554019 -0.10939042 -0.08883146 0.09504151 -0.1247211 -0.18170576 -0.026692986
0.035443574 -0.047020234 -0.22639737 -0.131542 -0.0824174 0.1466172 0.21908832 -0.12635015
0.14840713 0.06731062 0.23600943 0.034738936 0.12860326 -0.07356942 0.09539978 -0.21890885
0.19613042 0.012409286 -0.092865266 -0.030563831 -0.099099904 0.22893813 0.17940903 0.28726417
-0.055445835 0.23018402 0.09057129 0.21375084 0.16563085 -0.17332911 0.24916492 -0.08542499
0.1597307 -0.045198478 0.13563228 -0.24900457 -0.20690462 -0.011944026 0.074068606 0.12655318
0.093769185 -0.19029023 -0.21499042 0.24116533 -0.1369834 0.2135043 -0.086616024 -0.09132379
0.04751426 -0.24683584 0.0153743215 0.051353365 0.2432751 0.20115665 0.21813461 -0.09224575
0.09843647 -0.2275892 -0.12050681 -0.01856145 -0.2024195 0.19817573 0.1272739 -0.026675463
0.07725221 -0.19677727 0.23344791 0.09633836 0.16331777 0.10495359 0.02158153 -0.16532016
0.14655247 -0.057992257 -0.18234964 0.08032305 0.07757851 0.15741557 -0.07936273 0.08514294
-0.24185458 0.18448174 0.087112196 0.09300029 0.046707302 -0.0025663674 -0.13980421 0.09623622
-0.109190494 -0.06545845 0.18566658 0.1466587 0.26511517 -0.17507368 -0.05594649 0.2379216
-0.15954417 -0.17295867 -0.06306966 0.12541375 -0.19832015 0.19514716 -0.13933584 -0.017357185
0.08460083 -0.060056824 0.07465283 -0.20442703 -0.16158657 -0.14596763 -0.13268869 0.18205297
00000000: e8b3 dcbd 85bf 66bc e6b8 2fbd c217 51be
00000010: 2e30 213e 48e6 2ebd 3c7f 7bbe f2a4 6e3e
00000020: 3017 6bbe e36e 7b3e 1608 e0bd 45ed b5bd
00000030: 20a5 c23d c76d ffbd 1311 3abe 40ab dabc
00000040: 482d 113d 4a98 40bd b6d4 67be f2b2 06be
00000050: 74ca a8bd d222 163e b058 603e ef61 01be
00000060: 0af8 173e 26da 893d 75ac 713e 6a4a 0e3d
00000070: 93b0 033e 90ab 96bd f660 c33d a429 60be
00000080: 6ad6 483e 5150 4b3c 2530 bebd 0061 fabc
00000090: e4f4 cabd c26e 6a3e 00b7 373e 4a14 933e
000000a0: 2c1b 63bd 5cb5 6b3e 717d b93d 80e1 5a3e
000000b0: 229b 293e 307d 31be 1725 7f3e 4cf3 aebd
000000c0: 7290 233e 0a22 39bd 30e3 0a3e 0efb 7ebe
000000d0: cede 53be e0b0 43bc 48b1 973d 2897 013e
000000e0: 0f0a c03d 71db 42be 7326 5cbe 0bf4 763e
000000f0: 6045 0cbe dfa0 5a3e be63 b1bd f807 bbbd
00000100: 509e 423d 89c2 7cbe 94e4 7b3c e857 523d
00000110: 1c1d 793e 02fc 4d3e ae5e 5f3e 57eb bcbd
00000120: 0f99 c93d 250d 69be 46cc f6bd 2f0e 98bc
00000130: 0f47 4fbe 94ee 4a3e 1754 023e 8086 dabc
00000140: 6836 9e3d fb7f 49be f80c 6f3e 0c4d c53d
00000150: c63c 273e e8f1 d63d c0cb b03c b049 29be
00000160: da11 163e 4a89 6dbd ddb9 3abe 6980 a43d
00000170: 7be1 9e3d 8c31 213e ed88 a2bd 6c5f ae3d
00000180: baa8 77be c8e8 3c3e e167 b23d f076 be3d
00000190: 2850 3f3d 8030 28bb d628 0fbe 7f17 c53d
000001a0: 449f dfbd 140f 86bd 611f 3e3e b32d 163e
000001b0: 2dbd 873e 8446 33be 2628 65bd b8a1 733e
000001c0: 8c5f 23be 141c 31be aa2a 81bd 766c 003e
000001d0: 7014 4bbe a8d4 473e 0eae 0ebe a830 8ebc
000001e0: 3343 ad3d 25fe 75bd 95e3 983d 5255 51be
000001f0: f376 25be 8a78 15be 8bdf 07be 186c 3a3e

fc.2.bias f4 [8]
0.18925153 0.26869747 0.018178292 -0.056914408 -0.021874156 0.16527022 0.03263016 0.14411372
00000000: 27cb 413e b792 893e a4ea 943c 151f 69bd
00000010: 6e31 b3bc 993c 293e 34a7 053d 8c92 133e

fc.4.weight f4 [2, 8]
0.32855964 0.14122377 -0.1381548 -0.15255488 -0.19813335 0.024608187 -0.13344042 -0.3231037
-0.02185274 0.03234939 0.1483057 -0.119272314 -0.1456479 -0.1762955 0.102210134 -0.17450985
00000000: f838 a83e f79c 103e 7478 0dbe 5937 1cbe
00000010: 78e3 4abe 1c97 c93c 9ba4 08be d96d a5be
00000020: 8404 b3bc cb80 043d 73dd 173e 0b45 f4bd
00000030: b924 15be cf86 34be 8c53 d13d b6b2 32be

fc.4.bias f4 [2]
-0.009697719 -0.122726664
00000000: 2ee3 1ebc 1e58 fbbd
